checkpoint.pth.tar (torch, 97492 bytes, 6 tensors)

fc.weight f4 [10, 784]
000000 95 db ac bc a1 8e a7 bd c2 7b ac 3c f6 fb 35 3e
       -0.021100799 -0.08181501 0.021055106 0.17771897
000010 8f 4d f6 3c 79 f0 9e 3c 10 5f a9 3d e3 7c 36 bd
       0.03006628 0.019401776 0.08270085 -0.044552695
000020 f5 cc b9 bb 0c e1 b7 3d 06 50 0b bd 4b b9 f9 3d
       -0.0056701847 0.08978471 -0.034011863 0.12193545
000030 50 4a 99 3c bd 52 75 3d 64 46 0e be f0 39 a6 3d
       0.018712193 0.05989336 -0.1389404 0.081165195
000040 34 67 82 3c 14 da 32 bd 2c d2 17 be a5 79 ca bc
       0.015918352 -0.043665007 -0.14826268 -0.024716208
000050 2e 15 17 3d 5f 34 29 ba 32 a0 8c 3d 18 13 82 bd
       0.036885433 -0.0006454642 0.06866492 -0.06351298
000060 8d 41 64 3d b1 7f 97 bd 91 25 cb 3d 92 97 fa bd
       0.055726577 -0.07397402 0.099192746 -0.12235941
000070 72 58 0c 3e ea 34 e3 bc c4 76 0b bd f5 1b a4 3d
       0.13705614 -0.027735192 -0.03404881 0.08013145
000080 73 66 40 3d 6a d5 e6 3d fd 90 e8 3c ac 6e 97 bd
       0.046972703 0.11271174 0.028389448 -0.07394156
000090 59 ec 5c be e2 3b 44 bc 06 4b eb bd dd e6 9a 3d
       -0.21574534 -0.011977168 -0.11488919 0.07563565
0000a0 86 25 17 be 29 5f 79 bd a7 82 1f bd 31 87 44 bb
       -0.14760408 -0.060881767 -0.03894296 -0.0029987807
0000b0 dd 0b 97 3b 4b 8c c2 bd 23 ba 59 3c da 38 72 3d
       0.0046095685 -0.09499415 0.013289007 0.05913625
0000c0 33 d4 a5 3b c7 8f 80 3c 67 b4 a4 bc a7 94 24 bb
       0.0050606965 0.015693558 -0.020105554 -0.0025113018
0000d0 83 37 45 3d 39 cb 0e bd 7f 89 22 bd fe 2b 7b be
       0.048148643 -0.034861777 -0.039681908 -0.245285
0000e0 7a b0 02 3e 6e d4 8e bd 1f 90 f9 3c 51 a6 fd 3d
       0.12762633 -0.069741115 0.03046423 0.12385238
0000f0 d2 b6 c0 bd 77 ff 01 3d b1 87 7d 3d b1 69 69 3d
       -0.0940987 0.03173777 0.061896984 0.05698556
000100 4d b5 bb 3d 55 4c 0b 3e d6 37 db 3c 6c b5 6d 3d
       0.0916544 0.13603337 0.026760023 0.058034346
000110 10 b4 e4 3d 1c 1c ac 3d e3 97 80 bd 27 55 83 3d
       0.11167157 0.08403799 -0.0627897 0.06412726
000120 d1 9a 23 bc 68 50 3e bd ba 60 1c 3d ac 4f 9e 3d
       -0.009985642 -0.0464634 0.038178183 0.0773004
000130 89 54 1e 3e c2 34 b5 3d 4b 1a f7 3d d1 9d 77 bd
       0.15461935 0.088479534 0.12065562 -0.06045324
000140 24 73 47 3e 23 8d ac 3b 38 99 78 bc 15 e5 7b bd
       0.19477516 0.0052658482 -0.015173249 -0.061497767
000150 74 c2 d2 3c 27 4c c7 bd e0 ec 4b bd 49 c6 cd 3d
       0.025727488 -0.09731322 -0.04978645 0.100475855
000160 44 50 ab bc 2a a0 12 3c 8e b8 02 be f6 84 4c bd
       -0.020912297 0.008949319 -0.12765715 -0.04993149
000170 e6 ae ad 3d c1 18 c7 bd b2 ed e7 3d cd f2 5d bd
       0.08480625 -0.09721518 0.11324634 -0.05418663
000180 0d ba e0 bd 16 52 a6 3d c1 f2 84 3b 9d 89 cb bd
       -0.10972986 0.081211254 0.004057259 -0.09938357
000190 73 00 82 bd e9 8c 53 3d c6 3f ad bd 84 a6 ba bc
       -0.06347742 0.051648054 -0.084594294 -0.022784479
0001a0 0f 22 82 bd b8 a3 3d be 4c fb 00 3d f1 70 0c 3d
       -0.063541524 -0.18519485 0.031489655 0.034287397
0001b0 06 e5 1d 3d 2f e9 70 bd f2 50 a9 3d 57 09 72 3d
       0.038548492 -0.05881613 0.08267392 0.05909094
0001c0 51 16 20 be 75 c3 18 3e 87 4f c8 bd d1 6a a3 bc
       -0.15633513 0.14918311 -0.09780794 -0.019948395
0001d0 73 2d 03 bd c4 47 5f bd 1f ed f6 3d a7 b4 8d 3d
       -0.032025766 -0.0545118 0.12056946 0.06919222
0001e0 79 29 d9 bd d6 12 b3 3c 39 ec 06 be 98 13 5a bd
       -0.106036134 0.021859568 -0.1317605 -0.053241342
0001f0 9a 26 f0 3a 66 65 dc 3c 7a 0b 0b be 9d f7 21 be
       0.0018322051 0.02690382 -0.13578597 -0.15817113
000200 14 83 c2 bd 2b 39 aa 3a 34 5c 27 be 43 e5 94 3c
       -0.094976574 0.0012987008 -0.16343766 0.018175727
000210 9c e4 20 bd 0f 94 9e bd a8 21 01 bd bb 6a 14 bc
       -0.03928052 -0.07743084 -0.031526238 -0.00905865
000220 ff 22 20 bd 76 f7 59 3d 0d d3 74 bc 1e 7b 02 3d
       -0.039095875 0.053214513 -0.014942897 0.031855695
000230 f9 93 a1 3d 42 6e fc bd 8f aa d5 bb 80 24 1f bd
       0.07889552 -0.123257175 -0.0065205763 -0.03885317
000240 34 53 a1 bd 23 60 88 3d 4b 85 58 3d cb 78 b8 bd
       -0.07877198 0.066589616 0.052861493 -0.090074144
000250 1a 7e bd 3d 9a 34 2a 3b ed 8e 69 3c bc 22 95 bd
       0.092525676 0.0025971294 0.014255268 -0.07282016
000260 de ea 86 bc 4c 61 95 3c 2e 47 97 3d 1e 0c 0a bd
       -0.016469415 0.018234871 0.07386623 -0.033702962
000270 2c 04 72 3d 51 3f ca bd 99 54 2f be 8d 6b 54 bd
       0.05908601 -0.09875358 -0.17122115 -0.05186038
000280 62 2e 41 3d d2 f5 0a be 67 7a 07 be f1 84 ba bd
       0.047163375 -0.13570336 -0.13230287 -0.09107388
000290 fa de 3d bd 10 c0 78 3d bb 32 9b 3c 0e d5 08 be
       -0.046355225 0.06073004 0.018945089 -0.13362524
0002a0 8b 1b a3 bd 00 34 96 bd 70 46 b5 bd 17 20 28 bd
       -0.07964238 -0.07334137 -0.088513255 -0.04104623
0002b0 82 78 1e be b6 20 5a bd 42 dc 93 bd d8 c9 aa 3d
       -0.15475658 -0.05325385 -0.07219745 0.0833928
0002c0 0c a0 80 bd 53 3d e3 bd 73 3a 15 be 5f 87 76 3d
       -0.062805265 -0.11095681 -0.14573078 0.060187694
0002d0 e8 c9 aa 3d 06 ed 50 bc 4e ad e7 bd fd 21 f4 bd
       0.08339292 -0.012751823 -0.11312352 -0.11920545
0002e0 87 d2 86 bc 70 de 89 bc 25 82 9e 3b d4 17 f5 bc
       -0.01645781 -0.0168297 0.004837292 -0.029918589
0002f0 7b 30 c8 3d da cb 61 bd b4 27 0e 3e a8 84 f8 bc
       0.09774872 -0.05512605 0.13882333 -0.030336693
000300 b7 92 9f 3c 83 b4 46 3c 7f 3d e0 bd 13 40 05 bd
       0.019479139 0.012127998 -0.109492294 -0.03253181
000310 f0 cd d8 3c 10 ec ad bd 21 e5 98 3c 97 5c ec bc
       0.026465386 -0.08492291 0.018663945 -0.028852744
000320 d4 d5 88 3d 63 f5 9b bc f5 e9 eb bd f9 c3 b2 bb
       0.066814095 -0.019037908 -0.11519233 -0.0054554907
000330 4e 56 87 3d 2e 3a 49 bd 27 d0 ce bd b0 a7 49 bd
       0.06608258 -0.04912775 -0.10098296 -0.049232185
000340 6e e7 11 be 6b 0e 6e bd 52 af 5d bc de d3 ec bd
       -0.1424844 -0.05811922 -0.013530569 -0.11563848
000350 f3 4e ec 3c b8 25 e5 3b 47 ac 57 3b 65 bf c3 3d
       0.02884624 0.006993022 0.0032909082 0.0955799
000360 4f 79 a3 bd 96 ae f1 3a 70 d1 56 bd 75 54 8a 3d
       -0.07982122 0.0018438871 -0.05244583 0.0675439
000370 56 c4 0f 3e 5a 96 2c bd 81 ca 51 bd 19 e7 89 3c
       0.1403974 -0.042135574 -0.051218513 0.016833829
000380 10 0a ff bd d6 15 f2 3d ac 51 6a 3d 60 03 5a bd
       -0.12453091 0.11820571 0.057206795 -0.053225875
000390 c0 a4 25 3e 45 c5 0f bd 72 00 94 3d f7 b5 07 3b
       0.16176128 -0.03510024 0.072266474 0.0020707825
0003a0 9e 39 3f bb bd ec 9f 3d 09 f8 93 3d c4 8c 1b 3e
       -0.002917863 0.07808826 0.07225043 0.15190417
0003b0 fa 0c 28 bb e9 bf db 3d a8 93 9a bd 33 c0 81 bd
       -0.00256425 0.10729963 -0.075476944 -0.06335487
0003c0 5d b3 1d 3e 9e b7 08 be f3 56 3c be bb 4d d4 bc
       0.15400453 -0.13351294 -0.18392543 -0.025915971
0003d0 6e 1b 26 3d c9 3a c0 bd 2e ec 08 3d 01 2c de 3c
       0.040553503 -0.093862124 0.033428364 0.027120592
0003e0 cf 32 52 3e b2 6c 2c 3d d4 19 04 3e ad 13 cc 3d
       0.20527194 0.042095847 0.12900478 0.0996469
0003f0 c6 6f 35 be ca 8d 70 3d 02 7d 3a bd c1 4f 1b 3d
       -0.1771842 0.05872897 -0.045529373 0.037917856

fc.bias f4 [10]
000000 01 54 37 be 12 29 a0 bd 1f 1a ab 3a 88 1b 08 3e
       -0.17903139 -0.078203335 0.0013054049 0.13291752
000010 24 30 bc 3d b9 4a ad bd 97 ac 57 3d 8f b3 87 3d
       0.091888696 -0.08461518 0.05265483 0.06626045
000020 4d 90 81 3c 49 32 b0 bb
       0.015815878 -0.005377088

exp_avg f4 [10, 784]
000000 a8 98 17 38 06 67 25 ba 90 cf 0a ba d6 f1 09 ba
       3.6143378e-05 -0.0006309602 -0.00052952114 -0.00052621716
000010 19 bf 93 ba 30 df 4d ba 2f 8e d3 39 a8 9d c2 b8
       -0.0011272162 -0.0007853387 0.0004035099 -9.2800066e-05
000020 bf fc 49 39 93 2a c0 ba 0a 4b 2e 3a c7 91 1c ba
       0.00019263009 -0.0014661126 0.0006648755 -0.000597265
000030 2a 81 b9 39 30 f0 ae b9 7e 01 de 39 ac e8 24 b9
       0.00035382184 -0.0003336682 0.0004234425 -0.00015726936
000040 f6 c0 ef 39 24 a1 87 b9 4a de b6 39 f8 db 9b 39
       0.000457294 -0.00025869266 0.00034879363 0.00029727793
000050 30 4b 02 3a 40 c4 44 38 46 43 f4 b8 dc a2 0b 3a
       0.000497031 4.6912814e-05 -0.00011647357 0.0005326697
000060 e4 88 0d 3a dd 70 c2 b9 5a 6a e0 39 fd 6c cc b9
       0.00053991214 -0.00037086653 0.00042803847 -0.00038991115
000070 50 27 33 ba ae 6f 3c 3a 64 2e 8c b8 eb d1 5e ba
       -0.0006834166 0.00071882724 -6.684361e-05 -0.0008499908
000080 c8 f8 ea ba 1c 1f ef b9 b0 10 1d ba 32 32 6f 38
       -0.0017926926 -0.0004560881 -0.00059915613 5.702879e-05
000090 86 31 8d 3a 6f 1f 80 b9 9a 54 25 3a 18 6d 3e ba
       0.0010772205 -0.00024437482 0.0006306857 -0.0007264181
0000a0 da 11 4e 3a 32 2e 0c 39 bc 93 8c 39 89 68 1f 3a
       0.00078609365 0.0001336865 0.00026812952 0.00060809456
0000b0 8a fb 9b 38 54 6b 05 38 d1 8d 1e 3a 9f d5 82 b9
       7.437829e-05 3.1809628e-05 0.0006048354 -0.00024954692
0000c0 8d 9e 8b 39 4e 63 a1 39 3e 9f 76 3a a2 96 e7 b8
       0.00026630276 0.000307823 0.0009407884 -0.00011042996
0000d0 e8 03 a5 39 aa 80 5c 39 8a 53 d0 39 fd 4d c6 3a
       0.00031474163 0.00021028766 0.00039735093 0.0015129443
0000e0 34 7a 66 ba c0 99 e2 37 39 79 a6 b8 3f 6c 99 b9
       -0.00087920134 2.7012895e-05 -7.938076e-05 -0.00029263084
0000f0 00 2f c9 39 52 64 80 b9 be 06 9a b8 10 23 52 ba
       0.00038372725 -0.00024488807 -7.344548e-05 -0.0008016089
000100 ac c4 c9 38 71 16 d0 b9 21 89 90 39 b0 fd 3d b8
       9.62106e-05 -0.00039689572 0.0002756799 -4.5297376e-05
000110 4b 3e c6 b9 3b 5a a3 b9 e7 7c e3 39 78 02 c7 b9
       -0.00037811915 -0.0003115701 0.00043389873 -0.00037958077
000120 3c 58 ab b7 ec d4 7e 39 80 bd 62 36 80 0c 1b b8
       -2.0425876e-05 0.00024302647 3.3786928e-06 -3.696652e-05
000130 18 11 39 ba 54 96 fd b9 bc e4 53 b9 82 81 73 b9
       -0.0007059737 -0.00048367924 -0.00020207738 -0.00023222531
000140 38 b5 4e b8 ec 8b 13 3a 79 63 99 3a 90 18 fa 38
       -4.9283e-05 0.0005628455 0.0011702619 0.00011925504
000150 60 d7 fd 39 f6 27 70 39 32 0c 75 39 46 e3 87 b9
       0.00048416387 0.0002290307 0.00023369564 -0.00025918538
000160 da e7 4b 3a 0b 2b aa 39 3a 31 35 b8 6d 73 40 3a
       0.0007778384 0.00032456996 -4.319961e-05 0.00073414185
000170 4e 3c 4c ba e2 df a6 37 1f 36 fd b8 82 22 0a ba
       -0.00077909685 1.9892996e-05 -0.00012074061 -0.00052694243
000180 6f ba 47 3a 3d 38 55 b9 7c 01 fc 38 7a 0f 90 3a
       0.00076190283 -0.00020334213 0.00012016573 0.001099094
000190 4b f3 79 39 7e 4f 06 39 14 c1 81 3a 97 52 96 38
       0.00023837124 0.00012808849 0.0009899461 7.167941e-05
0001a0 37 90 8b b9 c0 08 bb 39 21 8b 28 ba 84 50 7e ba
       -0.00026619594 0.0003567394 -0.0006429423 -0.0009701329
0001b0 80 b7 e7 b9 f6 13 24 39 00 18 82 38 e4 a1 94 39
       -0.00044196472 0.00015647695 6.2033534e-05 0.00028349378
0001c0 46 06 82 b9 6e a0 59 ba 1c 7f 7f 39 c9 9a 3b 3a
       -0.00024800206 -0.0008301799 0.00024366047 0.00071565487
0001d0 dc b4 cb b8 0c ef f0 38 50 87 85 ba 0d f1 f3 39
       -9.713482e-05 0.00011488618 -0.0010187421 0.0004652817
0001e0 44 1c d7 39 05 a6 05 ba 57 b1 8f ba 8c b2 69 3a
       0.00041029055 -0.0005098286 -0.0010962886 0.000891485
0001f0 ce ee 1d 39 54 ff e7 39 ec 32 4d 39 30 bf b7 37
       0.00015061648 0.00044249988 0.00019569293 2.1904329e-05
000200 80 d1 bd b9 5d 72 2a ba 0c ba 21 3a cc 78 15 39
       -0.0003620498 -0.0006502027 0.0006169386 0.00014254748
000210 96 51 a3 b9 a0 19 a1 3a 3a b4 2f ba 88 69 45 38
       -0.0003115057 0.0012290962 -0.0006702576 4.7066744e-05
000220 c0 16 cd 37 5c 61 df b9 be 4a 84 3a 4e ec 28 39
       2.4448498e-05 -0.00042606413 0.0010093076 0.00016109759
000230 31 ac 83 ba 55 a8 35 39 ad 5f b7 39 60 b9 19 3a
       -0.0010045824 0.00017324214 0.00034975764 0.000586411
000240 43 f5 72 3a 47 77 67 ba e2 e8 17 b9 04 88 ea 39
       0.0009268114 -0.00088297244 -0.00014487238 0.00044733298
000250 50 d4 13 38 00 77 20 3a 00 17 dd b6 ae 4a 12 3a
       3.5245263e-05 0.0006121248 -6.588991e-06 0.0005580586
000260 ca a9 44 ba cc e4 f3 b8 93 c8 99 b9 dc 60 8b b7
       -0.0007502107 -0.0001162976 -0.00029331874 -1.6615195e-05
000270 8e 56 84 39 4c 12 8b 3a 7e e3 24 3a 42 8c b1 39
       0.0002524149 0.0010610311 0.00062900025 0.0003386457
000280 28 7b 70 ba 3c 61 51 b9 20 98 c8 39 8e 1e 14 3a
       -0.0009173625 -0.00019968016 0.00038260315 0.0005650305
000290 64 cb 55 ba 40 cf bd b9 9d 2c cb 39 08 38 8a b9
       -0.0008155613 -0.00036203302 0.00038752417 -0.00026363158
0002a0 84 51 43 3a 80 0f 7b 37 0c 99 a9 39 0a 1a ac 39
       0.00074508064 1.4964375e-05 0.0003234822 0.00032825797
0002b0 d1 11 82 3a d1 eb 8e 39 ac d6 28 3a df ce 08 ba
       0.0009923523 0.00027260048 0.000644068 -0.00052188145
0002c0 7b 99 e6 39 07 f4 7a 3a 62 93 16 3a 64 30 71 ba
       0.0004398337 0.0009573106 0.00057440076 -0.0009200631
0002d0 4d 28 b3 39 16 d4 8b 39 79 f6 1e 3a a2 02 18 b9
       0.00034171567 0.00026670162 0.0006063949 -0.0001449683
0002e0 8d ae f0 b9 08 b4 b6 39 96 38 07 b9 4d 07 57 ba
       -0.00045906418 0.0003484788 -0.00012895683 -0.0008202687
0002f0 b5 3a 29 ba 84 36 5e 39 39 d2 89 b9 00 a7 cb b8
       -0.00064555864 0.00021191878 -0.00026287304 -9.7109005e-05
000300 56 17 bb b9 92 71 51 b9 26 c7 6f 3a 76 0a 51 3a
       -0.00035684806 -0.00019974101 0.0009146802 0.0007974276
000310 de 4e 09 3a 4b de 83 39 2a 98 ce 39 3a 54 8a b8
       0.00052378874 0.00025151888 0.00039404753 -6.596041e-05
000320 dc 2b 22 b9 84 4e 7f 3a 36 d0 44 ba b8 c2 8e 38
       -0.00015465863 0.0009739178 -0.00075078325 6.807357e-05
000330 ac 9a 52 b9 65 38 cc 39 28 e5 4e 39 67 67 26 3a
       -0.0002008478 0.0003895193 0.00019731058 0.00063478056
000340 c8 d6 c5 39 a1 cc b6 b9 74 52 f7 b9 ae b7 93 39
       0.00037734793 -0.00034866206 -0.00047172944 0.00028174877
000350 c5 ae ff b9 ed fb 0a 3a 10 ec 1b 39 37 07 2b ba
       -0.00048767604 0.0005301822 0.00014869892 -0.00065242074
000360 dc 5e 9c 3a 51 ec 98 b9 7f ad cd b9 80 24 08 38
       0.0011930126 -0.0002916777 -0.00039229912 3.245892e-05
000370 85 33 a9 ba e6 36 b1 38 03 14 0a 3a 93 3d 12 3a
       -0.0012909031 8.450243e-05 0.0005267264 0.0005578633
000380 31 81 75 39 fb 89 9b ba 68 99 d8 39 d4 87 38 3a
       0.00023413148 -0.0011866683 0.00041313027 0.0007039283
000390 1a fa bc ba c0 dd ab 39 c0 ec 92 37 36 68 3f ba
       -0.0014417798 0.00032780878 1.7514802e-05 -0.00073016004
0003a0 ac a6 86 b9 14 0c ef b9 63 cb 43 ba 00 10 9d 36
       -0.00025682652 -0.0004559463 -0.00074689667 4.6808273e-06
0003b0 94 01 ad b9 3f 8c 8d ba ae 9b 1a ba 9a 30 bd 3a
       -0.00032998307 -0.0010799243 -0.0005897832 0.001443404
0003c0 6b fc 20 ba e2 35 92 3a 92 a6 37 3a 8e c2 29 3a
       -0.0006141129 0.0011154974 0.0007005717 0.0006475829
0003d0 63 12 b4 b9 da 57 00 ba 80 46 9a b9 0a 67 cb b9
       -0.00034345975 -0.00048959034 -0.00029425696 -0.00038795947
0003e0 1c eb 8f b9 9a 62 85 b8 5c ca 95 ba 98 ea e8 b8
       -0.00027450256 -6.3603e-05 -0.0011428106 -0.000111063186
0003f0 04 9f 0b b9 3f 3e a8 b8 a3 fa b6 b9 ec 43 c5 39
       -0.00013315311 -8.0224585e-05 -0.00034900484 0.00037625374

exp_avg_sq f4 [10, 784]
000000 de b7 38 39 66 dd 14 39 07 64 24 39 41 02 6f 39
       0.00017616103 0.00014196857 0.00015677522 0.00022793656
000010 de b6 24 39 5f 00 48 39 26 ff 23 39 e6 91 78 39
       0.00015708382 0.00019073625 0.00015639942 0.00023705474
000020 a5 39 13 39 f3 1e 80 39 45 67 19 39 76 5e 31 39
       0.00014040487 0.00024437121 0.00014629688 0.00016915225
000030 2e 2d 37 39 38 ab 1c 39 49 85 50 39 0d 45 6a 39
       0.00017469071 0.00014941103 0.00019886078 0.00022341702
000040 0c ec 10 39 c0 17 6e 39 97 93 58 39 07 40 3d 39
       0.00013820844 0.00022706296 0.00020654347 0.00018048297
000050 dd ae 10 39 26 67 43 39 dd e6 2a 39 82 57 3c 39
       0.00013798052 0.00018635075 0.00016298467 0.00017961676
000060 f1 08 4a 39 2d ad 48 39 01 dc 49 39 8b 97 51 39
       0.00019267552 0.00019138 0.00019250812 0.00019988247
000070 83 77 52 39 53 a3 1f 39 1a 20 48 39 d4 f0 22 39
       0.00020071682 0.00015224265 0.00019085445 0.0001553924
000080 2b b3 5d 39 18 ee 46 39 c4 40 37 39 4e 5a 5b 39
       0.00021142948 0.00018971448 0.00017476367 0.00020919109
000090 c2 40 63 39 0e 56 34 39 37 80 25 39 1a bd 2b 39
       0.00021672531 0.00017198196 0.0001578339 0.00016378277
0000a0 5a 94 33 39 29 f2 30 39 9e 22 57 39 f6 80 66 39
       0.00017126036 0.0001687488 0.00020516894 0.00021982551
0000b0 d1 c4 5d 39 53 cb 26 39 d4 9a 35 39 e9 52 31 39
       0.00021149522 0.00015906738 0.00017319183 0.00016910922
0000c0 eb 85 35 39 b2 a6 0f 39 eb 23 2f 39 19 70 10 39
       0.00017311393 0.00013699642 0.00016702681 0.0001377467
0000d0 d3 f1 3c 39 22 32 4c 39 82 64 50 39 49 9e 60 39
       0.00018019164 0.00019473632 0.00019873868 0.0002142127
0000e0 c1 d9 2a 39 7c 39 4b 39 fa 86 3c 39 ad 21 1a 39
       0.00016293583 0.00019381003 0.0001797936 0.0001469913
0000f0 67 f4 3a 39 4b a1 4c 39 ee b2 2d 39 0f 5f 1d 39
       0.00017829389 0.00019515042 0.00016565222 0.00015008099
000100 9e 03 30 39 f6 b0 87 39 0e 2c 43 39 0d 33 17 39
       0.00016786015 0.00025881053 0.00018613061 0.000144195
000110 ea c2 21 39 7e f0 46 39 23 20 31 39 86 a6 32 39
       0.00015426768 0.00018972342 0.00016892007 0.00017037438
000120 fe 80 15 39 9d b6 19 39 cd 48 26 39 e3 1f 49 39
       0.000142578 0.00014659246 0.00015858114 0.00019180732
000130 bc 12 24 39 99 9d 29 39 96 c5 34 39 54 f9 18 39
       0.00015647238 0.00016175806 0.00017239744 0.00014588732
000140 98 66 62 39 32 38 45 39 30 5b 45 39 92 17 0c 39
       0.00021591259 0.00018808318 0.00018821354 0.00013360221
000150 90 32 1a 39 45 74 1e 39 4c f9 65 39 e8 7c 3c 39
       0.0001470542 0.00015111368 0.00021932012 0.00017975608
000160 64 94 4d 39 b8 59 5f 39 0f 72 08 39 64 69 3e 39
       0.00019605603 0.0002130036 0.00013012461 0.00018159073
000170 c9 b1 27 39 af ea 4f 39 b1 9b 43 39 03 62 50 39
       0.00015992591 0.00019828485 0.00018654649 0.00019872938
000180 3e ff 54 39 cb 8e 41 39 54 e0 30 39 b8 c3 47 39
       0.0002031298 0.00018459109 0.00016868237 0.0001905103
000190 e2 27 49 39 bd 3f 24 39 9d e2 27 39 69 2e 30 39
       0.00019183711 0.00015664003 0.00016010781 0.00016801957
0001a0 0b 4a 3b 39 c8 20 22 39 ef a5 33 39 16 a5 2e 39
       0.00017861293 0.00015461736 0.00017132585 0.00016655432
0001b0 b0 e6 37 39 2b 3b 3a 39 4a ae 13 39 72 f8 5f 39
       0.00017538178 0.00017760384 0.0001408394 0.0002135949
0001c0 62 42 0b 39 45 a7 46 39 7a b5 41 39 24 04 2e 39
       0.00013280803 0.00018945064 0.0001847352 0.00016595476
0001d0 66 90 33 39 4d 66 46 39 ee ba 50 39 2c 33 49 39
       0.00017124563 0.00018920861 0.00019906063 0.00019187917
0001e0 da d0 5d 39 4f a0 39 39 fc b1 1e 39 c7 50 42 39
       0.00021154006 0.00017702694 0.00015134359 0.00018531374
0001f0 c7 34 13 39 0b d5 25 39 41 b5 3c 39 c7 92 40 39
       0.00014038674 0.00015814991 0.000179966 0.00018365226
000200 98 1f 58 39 8f d2 40 39 8b fe 4c 39 8f e1 2f 39
       0.00020611135 0.00018388986 0.0001954978 0.00016773328
000210 26 df 0c 39 6d 32 4d 39 33 01 30 39 ee a4 58 39
       0.0001343457 0.00019569109 0.00016785115 0.00020660806
000220 84 db 2d 39 42 ee 34 39 3c 86 2c 39 99 de 1c 39
       0.00016580342 0.00017254896 0.00016453204 0.00014960243
000230 ca 7e 2d 39 73 17 3e 39 ca 03 46 39 ec 92 72 39
       0.00016545798 0.00018128548 0.00018884163 0.00023133651
000240 31 c0 64 39 26 b5 12 39 f2 22 4d 39 30 5e 2a 39
       0.00021815371 0.00013991128 0.00019563342 0.00016247551
000250 29 df 25 39 30 4a 34 39 95 83 57 39 ed 6b 3e 39
       0.0001581876 0.00017193775 0.00020553016 0.00018160017
000260 90 65 30 39 07 79 2c 39 b0 16 45 39 0a f0 28 39
       0.00016822503 0.00016448284 0.00018795836 0.0001611115
000270 82 72 25 39 fe 0c 72 39 49 68 22 39 fc f9 17 39
       0.00015778284 0.00023083758 0.00015488373 0.00014493609
000280 84 b8 63 39 e4 eb 43 39 1a eb 5f 39 22 b2 44 39
       0.00021717144 0.00018684525 0.0002135452 0.00018758376
000290 98 39 30 39 53 df 20 39 c4 b1 49 39 eb e6 53 39
       0.00016806123 0.00015341984 0.00019235077 0.00020208552
0002a0 7e f2 4f 39 dd 89 2a 39 39 64 2f 39 61 61 4a 39
       0.00019831394 0.00016263821 0.00016726636 0.00019300498
0002b0 d0 69 19 39 e8 cd 3e 39 71 4f 41 39 ca cb 71 39
       0.00014630635 0.00018196518 0.00018435509 0.00023059468
0002c0 25 ec 30 39 30 a2 4b 39 62 07 3f 39 e1 ce 43 39
       0.00016872639 0.00019420008 0.0001821793 0.00018673718
0002d0 d3 b7 16 39 b7 e4 46 39 6f 8f 16 39 4c 33 53 39
       0.00014373595 0.00018967954 0.00014358548 0.00020141638
0002e0 9e 1d 28 39 4e c6 05 39 6f 27 2d 39 09 e9 35 39
       0.00016032762 0.00012757743 0.00016513256 0.00017348317
0002f0 e7 b5 33 39 96 aa 5a 39 44 69 86 39 48 7e 46 39
       0.00017138534 0.00020853648 0.000256369 0.00018929795
000300 b8 4b 41 39 61 31 07 39 5e 1a 70 39 68 4a 2e 39
       0.00018434122 0.00012892998 0.00022898006 0.00016621652
000310 c8 07 18 39 7a 51 0a 39 ff 8f 2a 39 d0 e7 6d 39
       0.00014498748 0.00013191058 0.00016266106 0.00022688438
000320 17 95 3f 39 f8 6e 39 39 a6 47 17 39 49 df 3b 39
       0.0001827072 0.00017684314 0.00014427173 0.0001791689
000330 38 9a 3a 39 82 fb 13 39 bd 90 43 39 c7 71 4f 39
       0.00017795793 0.00014112706 0.00018650568 0.00019783444
000340 f0 2d 1d 39 84 e2 22 39 5d 42 3e 39 20 cb 17 39
       0.000149898 0.00015533908 0.00018144534 0.00014476152
000350 48 8a 77 39 ad 0c 48 39 18 81 35 39 77 65 3f 39
       0.0002360727 0.00019078208 0.00017309596 0.00018252978
000360 e3 77 1d 39 7f 92 21 39 4d 27 08 39 0b 31 55 39
       0.00015017348 0.0001540873 0.00012984611 0.00020331533
000370 e1 20 2d 39 e4 1c 2c 39 cf bf 20 39 c9 e2 6d 39
       0.00016510814 0.00016413961 0.00015330243 0.00022686565
000380 07 e0 2e 39 75 18 3f 39 74 7d 51 39 47 68 27 39
       0.0001667739 0.0001822429 0.00019978528 0.00015965207
000390 91 51 55 39 6c 96 21 39 79 0c 2f 39 2c 45 16 39
       0.00020343649 0.00015410193 0.00016693947 0.00014330883
0003a0 32 83 39 39 ef b0 17 39 19 bc 67 39 14 46 56 39
       0.00017691849 0.00014466395 0.00022099949 0.00020434737
0003b0 4e 69 36 39 22 18 29 39 c1 b8 50 39 06 55 72 39
       0.00017396102 0.00016126086 0.00019905252 0.00023110592
0003c0 e0 ba 36 39 30 49 18 39 16 f0 46 39 da f3 61 39
       0.00017426489 0.00014523114 0.0001897219 0.00021548514
0003d0 a0 7f 33 39 0f 39 36 39 09 13 72 39 1c c8 2a 39
       0.00017118314 0.00017378129 0.0002308601 0.0001628701
0003e0 ad 9b 3f 39 04 86 3d 39 09 89 6d 39 19 9d 47 39
       0.00018273173 0.0001807437 0.00022653131 0.00019036642
0003f0 8f ff 50 39 fe ad 1f 39 e0 f9 5c 39 7f 2c 25 39
       0.00019931629 0.00015228239 0.0002107392 0.00015752202

exp_avg f4 [10]
000000 6f 9d 1f 3a 67 0e b1 3a 4a 09 a4 39 04 d2 f1 ba
       0.0006088828 0.001350832 0.00031287438 -0.001844943
000010 66 25 a1 ba b9 49 bc 3a 96 e9 f9 b9 e2 41 bc 3a
       -0.0012294471 0.0014365233 -0.00047667016 0.0014362896
000020 94 d8 c4 b9 1a c3 9f ba
       -0.00037545396 -0.0012188882

exp_avg_sq f4 [10]
000000 62 cf 3a 39 55 bd 3e 39 bc 42 6f 39 6c 09 97 39
       0.00017815598 0.00018190344 0.00022817677 0.00028807984
000010 fb 18 8f 39 30 b3 69 39 f9 7a 7c 39 5b 9d 80 39
       0.00027293697 0.00022287364 0.00024078404 0.00024531301
000020 66 6c 6a 39 52 54 80 39
       0.0002235636 0.00024476886
